{"backend": "tensorflow", "config": {"name": "model_1", "input_layers": [["input_1", 0, 0]], "layers": [{"name": "input_1", "inbound_nodes": [], "config": {"batch_input_shape": [null, 224, 224, 3], "dtype": "float32", "sparse": false, "name": "input_1"}, "class_name": "InputLayer"}, {"name": "conv1_pad", "inbound_nodes": [[["input_1", 0, 0, {}]]], "config": {"name": "conv1_pad", "data_format": "channels_last", "trainable": false, "padding": [[3, 3], [3, 3]]}, "class_name": "ZeroPadding2D"}, {"name": "conv1", "inbound_nodes": [[["conv1_pad", 0, 0, {}]]], "config": {"kernel_size": [7, 7], "strides": [2, 2], "kernel_regularizer": null, "use_bias": true, "activation": "linear", "bias_regularizer": null, "filters": 64, "trainable": false, "data_format": "channels_last", "activity_regularizer": null, "padding": "valid", "dilation_rate": [1, 1], "name": "conv1", "bias_constraint": null, "kernel_initializer": {"config": {"scale": 1.0, "seed": null, "distribution": "uniform", "mode": "fan_avg"}, "class_name": "VarianceScaling"}, "bias_initializer": {"config": {}, "class_name": "Zeros"}, "kernel_constraint": null}, "class_name": "Conv2D"}, {"name": "bn_conv1", "inbound_nodes": [[["conv1", 0, 0, {}]]], "config": {"gamma_initializer": {"config": {}, "class_name": "Ones"}, "beta_constraint": null, "moving_variance_initializer": {"config": {}, "class_name": "Ones"}, "axis": 3, "moving_mean_initializer": {"config": {}, "class_name": "Zeros"}, "center": true, "gamma_constraint": null, "scale": true, "name": "bn_conv1", "beta_regularizer": null, "epsilon": 0.001, "trainable": false, "beta_initializer": {"config": {}, "class_name": "Zeros"}, "momentum": 0.99, "gamma_regularizer": null}, "class_name": "BatchNormalization"}, {"name": "activation_1", "inbound_nodes": [[["bn_conv1", 0, 0, {}]]], "config": {"name": "activation_1", "trainable": false, "activation": "relu"}, "class_name": "Activation"}, {"name": "max_pooling2d_1", "inbound_nodes": [[["activation_1", 0, 0, {}]]], "config": {"strides": [2, 2], "padding": "valid", "name": "max_pooling2d_1", "trainable": false, "data_format": "channels_last", "pool_size": [3, 3]}, "class_name": "MaxPooling2D"}, {"name": "res2a_branch2a", "inbound_nodes": [[["max_pooling2d_1", 0, 0, {}]]], "config": {"kernel_size": [1, 1], "strides": [1, 1], "kernel_regularizer": null, "use_bias": true, "activation": "linear", "bias_regularizer": null, "filters": 64, "trainable": false, "data_format": "channels_last", "activity_regularizer": null, "padding": "valid", "dilation_rate": [1, 1], "name": "res2a_branch2a", "bias_constraint": null, "kernel_initializer": {"config": {"scale": 1.0, "seed": null, "distribution": "uniform", "mode": "fan_avg"}, "class_name": "VarianceScaling"}, "bias_initializer": {"config": {}, "class_name": "Zeros"}, "kernel_constraint": null}, "class_name": "Conv2D"}, {"name": "bn2a_branch2a", "inbound_nodes": [[["res2a_branch2a", 0, 0, {}]]], "config": {"gamma_initializer": {"config": {}, "class_name": "Ones"}, "beta_constraint": null, "moving_variance_initializer": {"config": {}, "class_name": "Ones"}, "axis": 3, "moving_mean_initializer": {"config": {}, "class_name": "Zeros"}, "center": true, "gamma_constraint": null, "scale": true, "name": "bn2a_branch2a", "beta_regularizer": null, "epsilon": 0.001, "trainable": false, "beta_initializer": {"config": {}, "class_name": "Zeros"}, "momentum": 0.99, "gamma_regularizer": null}, "class_name": "BatchNormalization"}, {"name": "activation_2", "inbound_nodes": [[["bn2a_branch2a", 0, 0, {}]]], "config": {"name": "activation_2", "trainable": false, "activation": "relu"}, "class_name": "Activation"}, {"name": "res2a_branch2b", "inbound_nodes": [[["activation_2", 0, 0, {}]]], "config": {"kernel_size": [3, 3], "strides": [1, 1], "kernel_regularizer": null, "use_bias": true, "activation": "linear", "bias_regularizer": null, "filters": 64, "trainable": false, "data_format": "channels_last", "activity_regularizer": null, "padding": "same", "dilation_rate": [1, 1], "name": "res2a_branch2b", "bias_constraint": null, "kernel_initializer": {"config": {"scale": 1.0, "seed": null, "distribution": "uniform", "mode": "fan_avg"}, "class_name": "VarianceScaling"}, "bias_initializer": {"config": {}, "class_name": "Zeros"}, "kernel_constraint": null}, "class_name": "Conv2D"}, {"name": "bn2a_branch2b", "inbound_nodes": [[["res2a_branch2b", 0, 0, {}]]], "config": {"gamma_initializer": {"config": {}, "class_name": "Ones"}, "beta_constraint": null, "moving_variance_initializer": {"config": {}, "class_name": "Ones"}, "axis": 3, "moving_mean_initializer": {"config": {}, "class_name": "Zeros"}, "center": true, "gamma_constraint": null, "scale": true, "name": "bn2a_branch2b", "beta_regularizer": null, "epsilon": 0.001, "trainable": false, "beta_initializer": {"config": {}, "class_name": "Zeros"}, "momentum": 0.99, "gamma_regularizer": null}, "class_name": "BatchNormalization"}, {"name": "activation_3", "inbound_nodes": [[["bn2a_branch2b", 0, 0, {}]]], "config": {"name": "activation_3", "trainable": false, "activation": "relu"}, "class_name": "Activation"}, {"name": "res2a_branch2c", "inbound_nodes": [[["activation_3", 0, 0, {}]]], "config": {"kernel_size": [1, 1], "strides": [1, 1], "kernel_regularizer": null, "use_bias": true, "activation": "linear", "bias_regularizer": null, "filters": 256, "trainable": false, "data_format": "channels_last", "activity_regularizer": null, "padding": "valid", "dilation_rate": [1, 1], "name": "res2a_branch2c", "bias_constraint": null, "kernel_initializer": {"config": {"scale": 1.0, "seed": null, "distribution": "uniform", "mode": "fan_avg"}, "class_name": "VarianceScaling"}, "bias_initializer": {"config": {}, "class_name": "Zeros"}, "kernel_constraint": null}, "class_name": "Conv2D"}, {"name": "res2a_branch1", "inbound_nodes": [[["max_pooling2d_1", 0, 0, {}]]], "config": {"kernel_size": [1, 1], "strides": [1, 1], "kernel_regularizer": null, "use_bias": true, "activation": "linear", "bias_regularizer": null, "filters": 256, "trainable": false, "data_format": "channels_last", "activity_regularizer": null, "padding": "valid", "dilation_rate": [1, 1], "name": "res2a_branch1", "bias_constraint": null, "kernel_initializer": {"config": {"scale": 1.0, "seed": null, "distribution": "uniform", "mode": "fan_avg"}, "class_name": "VarianceScaling"}, "bias_initializer": {"config": {}, "class_name": "Zeros"}, "kernel_constraint": null}, "class_name": "Conv2D"}, {"name": "bn2a_branch2c", "inbound_nodes": [[["res2a_branch2c", 0, 0, {}]]], "config": {"gamma_initializer": {"config": {}, "class_name": "Ones"}, "beta_constraint": null, "moving_variance_initializer": {"config": {}, "class_name": "Ones"}, "axis": 3, "moving_mean_initializer": {"config": {}, "class_name": "Zeros"}, "center": true, "gamma_constraint": null, "scale": true, "name": "bn2a_branch2c", "beta_regularizer": null, "epsilon": 0.001, "trainable": false, "beta_initializer": {"config": {}, "class_name": "Zeros"}, "momentum": 0.99, "gamma_regularizer": null}, "class_name": "BatchNormalization"}, {"name": "bn2a_branch1", "inbound_nodes": [[["res2a_branch1", 0, 0, {}]]], "config": {"gamma_initializer": {"config": {}, "class_name": "Ones"}, "beta_constraint": null, "moving_variance_initializer": {"config": {}, "class_name": "Ones"}, "axis": 3, "moving_mean_initializer": {"config": {}, "class_name": "Zeros"}, "center": true, "gamma_constraint": null, "scale": true, "name": "bn2a_branch1", "beta_regularizer": null, "epsilon": 0.001, "trainable": false, "beta_initializer": {"config": {}, "class_name": "Zeros"}, "momentum": 0.99, "gamma_regularizer": null}, "class_name": "BatchNormalization"}, {"name": "add_1", "inbound_nodes": [[["bn2a_branch2c", 0, 0, {}], ["bn2a_branch1", 0, 0, {}]]], "config": {"name": "add_1", "trainable": false}, "class_name": "Add"}, {"name": "activation_4", "inbound_nodes": [[["add_1", 0, 0, {}]]], "config": {"name": "activation_4", "trainable": false, "activation": "relu"}, "class_name": "Activation"}, {"name": "res2b_branch2a", "inbound_nodes": [[["activation_4", 0, 0, {}]]], "config": {"kernel_size": [1, 1], "strides": [1, 1], "kernel_regularizer": null, "use_bias": true, "activation": "linear", "bias_regularizer": null, "filters": 64, "trainable": false, "data_format": "channels_last", "activity_regularizer": null, "padding": "valid", "dilation_rate": [1, 1], "name": "res2b_branch2a", "bias_constraint": null, "kernel_initializer": {"config": {"scale": 1.0, "seed": null, "distribution": "uniform", "mode": "fan_avg"}, "class_name": "VarianceScaling"}, "bias_initializer": {"config": {}, "class_name": "Zeros"}, "kernel_constraint": null}, "class_name": "Conv2D"}, {"name": "bn2b_branch2a", "inbound_nodes": [[["res2b_branch2a", 0, 0, {}]]], "config": {"gamma_initializer": {"config": {}, "class_name": "Ones"}, "beta_constraint": null, "moving_variance_initializer": {"config": {}, "class_name": "Ones"}, "axis": 3, "moving_mean_initializer": {"config": {}, "class_name": "Zeros"}, "center": true, "gamma_constraint": null, "scale": true, "name": "bn2b_branch2a", "beta_regularizer": null, "epsilon": 0.001, "trainable": false, "beta_initializer": {"config": {}, "class_name": "Zeros"}, "momentum": 0.99, "gamma_regularizer": null}, "class_name": "BatchNormalization"}, {"name": "activation_5", "inbound_nodes": [[["bn2b_branch2a", 0, 0, {}]]], "config": {"name": "activation_5", "trainable": false, "activation": "relu"}, "class_name": "Activation"}, {"name": "res2b_branch2b", "inbound_nodes": [[["activation_5", 0, 0, {}]]], "config": {"kernel_size": [3, 3], "strides": [1, 1], "kernel_regularizer": null, "use_bias": true, "activation": "linear", "bias_regularizer": null, "filters": 64, "trainable": false, "data_format": "channels_last", "activity_regularizer": null, "padding": "same", "dilation_rate": [1, 1], "name": "res2b_branch2b", "bias_constraint": null, "kernel_initializer": {"config": {"scale": 1.0, "seed": null, "distribution": "uniform", "mode": "fan_avg"}, "class_name": "VarianceScaling"}, "bias_initializer": {"config": {}, "class_name": "Zeros"}, "kernel_constraint": null}, "class_name": "Conv2D"}, {"name": "bn2b_branch2b", "inbound_nodes": [[["res2b_branch2b", 0, 0, {}]]], "config": {"gamma_initializer": {"config": {}, "class_name": "Ones"}, "beta_constraint": null, "moving_variance_initializer": {"config": {}, "class_name": "Ones"}, "axis": 3, "moving_mean_initializer": {"config": {}, "class_name": "Zeros"}, "center": true, "gamma_constraint": null, "scale": true, "name": "bn2b_branch2b", "beta_regularizer": null, "epsilon": 0.001, "trainable": false, "beta_initializer": {"config": {}, "class_name": "Zeros"}, "momentum": 0.99, "gamma_regularizer": null}, "class_name": "BatchNormalization"}, {"name": "activation_6", "inbound_nodes": [[["bn2b_branch2b", 0, 0, {}]]], "config": {"name": "activation_6", "trainable": false, "activation": "relu"}, "class_name": "Activation"}, {"name": "res2b_branch2c", "inbound_nodes": [[["activation_6", 0, 0, {}]]], "config": {"kernel_size": [1, 1], "strides": [1, 1], "kernel_regularizer": null, "use_bias": true, "activation": "linear", "bias_regularizer": null, "filters": 256, "trainable": false, "data_format": "channels_last", "activity_regularizer": null, "padding": "valid", "dilation_rate": [1, 1], "name": "res2b_branch2c", "bias_constraint": null, "kernel_initializer": {"config": {"scale": 1.0, "seed": null, "distribution": "uniform", "mode": "fan_avg"}, "class_name": "VarianceScaling"}, "bias_initializer": {"config": {}, "class_name": "Zeros"}, "kernel_constraint": null}, "class_name": "Conv2D"}, {"name": "bn2b_branch2c", "inbound_nodes": [[["res2b_branch2c", 0, 0, {}]]], "config": {"gamma_initializer": {"config": {}, "class_name": "Ones"}, "beta_constraint": null, "moving_variance_initializer": {"config": {}, "class_name": "Ones"}, "axis": 3, "moving_mean_initializer": {"config": {}, "class_name": "Zeros"}, "center": true, "gamma_constraint": null, "scale": true, "name": "bn2b_branch2c", "beta_regularizer": null, "epsilon": 0.001, "trainable": false, "beta_initializer": {"config": {}, "class_name": "Zeros"}, "momentum": 0.99, "gamma_regularizer": null}, "class_name": "BatchNormalization"}, {"name": "add_2", "inbound_nodes": [[["bn2b_branch2c", 0, 0, {}], ["activation_4", 0, 0, {}]]], "config": {"name": "add_2", "trainable": false}, "class_name": "Add"}, {"name": "activation_7", "inbound_nodes": [[["add_2", 0, 0, {}]]], "config": {"name": "activation_7", "trainable": false, "activation": "relu"}, "class_name": "Activation"}, {"name": "res2c_branch2a", "inbound_nodes": [[["activation_7", 0, 0, {}]]], "config": {"kernel_size": [1, 1], "strides": [1, 1], "kernel_regularizer": null, "use_bias": true, "activation": "linear", "bias_regularizer": null, "filters": 64, "trainable": false, "data_format": "channels_last", "activity_regularizer": null, "padding": "valid", "dilation_rate": [1, 1], "name": "res2c_branch2a", "bias_constraint": null, "kernel_initializer": {"config": {"scale": 1.0, "seed": null, "distribution": "uniform", "mode": "fan_avg"}, "class_name": "VarianceScaling"}, "bias_initializer": {"config": {}, "class_name": "Zeros"}, "kernel_constraint": null}, "class_name": "Conv2D"}, {"name": "bn2c_branch2a", "inbound_nodes": [[["res2c_branch2a", 0, 0, {}]]], "config": {"gamma_initializer": {"config": {}, "class_name": "Ones"}, "beta_constraint": null, "moving_variance_initializer": {"config": {}, "class_name": "Ones"}, "axis": 3, "moving_mean_initializer": {"config": {}, "class_name": "Zeros"}, "center": true, "gamma_constraint": null, "scale": true, "name": "bn2c_branch2a", "beta_regularizer": null, "epsilon": 0.001, "trainable": false, "beta_initializer": {"config": {}, "class_name": "Zeros"}, "momentum": 0.99, "gamma_regularizer": null}, "class_name": "BatchNormalization"}, {"name": "activation_8", "inbound_nodes": [[["bn2c_branch2a", 0, 0, {}]]], "config": {"name": "activation_8", "trainable": false, "activation": "relu"}, "class_name": "Activation"}, {"name": "res2c_branch2b", "inbound_nodes": [[["activation_8", 0, 0, {}]]], "config": {"kernel_size": [3, 3], "strides": [1, 1], "kernel_regularizer": null, "use_bias": true, "activation": "linear", "bias_regularizer": null, "filters": 64, "trainable": false, "data_format": "channels_last", "activity_regularizer": null, "padding": "same", "dilation_rate": [1, 1], "name": "res2c_branch2b", "bias_constraint": null, "kernel_initializer": {"config": {"scale": 1.0, "seed": null, "distribution": "uniform", "mode": "fan_avg"}, "class_name": "VarianceScaling"}, "bias_initializer": {"config": {}, "class_name": "Zeros"}, "kernel_constraint": null}, "class_name": "Conv2D"}, {"name": "bn2c_branch2b", "inbound_nodes": [[["res2c_branch2b", 0, 0, {}]]], "config": {"gamma_initializer": {"config": {}, "class_name": "Ones"}, "beta_constraint": null, "moving_variance_initializer": {"config": {}, "class_name": "Ones"}, "axis": 3, "moving_mean_initializer": {"config": {}, "class_name": "Zeros"}, "center": true, "gamma_constraint": null, "scale": true, "name": "bn2c_branch2b", "beta_regularizer": null, "epsilon": 0.001, "trainable": false, "beta_initializer": {"config": {}, "class_name": "Zeros"}, "momentum": 0.99, "gamma_regularizer": null}, "class_name": "BatchNormalization"}, {"name": "activation_9", "inbound_nodes": [[["bn2c_branch2b", 0, 0, {}]]], "config": {"name": "activation_9", "trainable": false, "activation": "relu"}, "class_name": "Activation"}, {"name": "res2c_branch2c", "inbound_nodes": [[["activation_9", 0, 0, {}]]], "config": {"kernel_size": [1, 1], "strides": [1, 1], "kernel_regularizer": null, "use_bias": true, "activation": "linear", "bias_regularizer": null, "filters": 256, "trainable": false, "data_format": "channels_last", "activity_regularizer": null, "padding": "valid", "dilation_rate": [1, 1], "name": "res2c_branch2c", "bias_constraint": null, "kernel_initializer": {"config": {"scale": 1.0, "seed": null, "distribution": "uniform", "mode": "fan_avg"}, "class_name": "VarianceScaling"}, "bias_initializer": {"config": {}, "class_name": "Zeros"}, "kernel_constraint": null}, "class_name": "Conv2D"}, {"name": "bn2c_branch2c", "inbound_nodes": [[["res2c_branch2c", 0, 0, {}]]], "config": {"gamma_initializer": {"config": {}, "class_name": "Ones"}, "beta_constraint": null, "moving_variance_initializer": {"config": {}, "class_name": "Ones"}, "axis": 3, "moving_mean_initializer": {"config": {}, "class_name": "Zeros"}, "center": true, "gamma_constraint": null, "scale": true, "name": "bn2c_branch2c", "beta_regularizer": null, "epsilon": 0.001, "trainable": false, "beta_initializer": {"config": {}, "class_name": "Zeros"}, "momentum": 0.99, "gamma_regularizer": null}, "class_name": "BatchNormalization"}, {"name": "add_3", "inbound_nodes": [[["bn2c_branch2c", 0, 0, {}], ["activation_7", 0, 0, {}]]], "config": {"name": "add_3", "trainable": false}, "class_name": "Add"}, {"name": "activation_10", "inbound_nodes": [[["add_3", 0, 0, {}]]], "config": {"name": "activation_10", "trainable": false, "activation": "relu"}, "class_name": "Activation"}, {"name": "res3a_branch2a", "inbound_nodes": [[["activation_10", 0, 0, {}]]], "config": {"kernel_size": [1, 1], "strides": [2, 2], "kernel_regularizer": null, "use_bias": true, "activation": "linear", "bias_regularizer": null, "filters": 128, "trainable": false, "data_format": "channels_last", "activity_regularizer": null, "padding": "valid", "dilation_rate": [1, 1], "name": "res3a_branch2a", "bias_constraint": null, "kernel_initializer": {"config": {"scale": 1.0, "seed": null, "distribution": "uniform", "mode": "fan_avg"}, "class_name": "VarianceScaling"}, "bias_initializer": {"config": {}, "class_name": "Zeros"}, "kernel_constraint": null}, "class_name": "Conv2D"}, {"name": "bn3a_branch2a", "inbound_nodes": [[["res3a_branch2a", 0, 0, {}]]], "config": {"gamma_initializer": {"config": {}, "class_name": "Ones"}, "beta_constraint": null, "moving_variance_initializer": {"config": {}, "class_name": "Ones"}, "axis": 3, "moving_mean_initializer": {"config": {}, "class_name": "Zeros"}, "center": true, "gamma_constraint": null, "scale": true, "name": "bn3a_branch2a", "beta_regularizer": null, "epsilon": 0.001, "trainable": false, "beta_initializer": {"config": {}, "class_name": "Zeros"}, "momentum": 0.99, "gamma_regularizer": null}, "class_name": "BatchNormalization"}, {"name": "activation_11", "inbound_nodes": [[["bn3a_branch2a", 0, 0, {}]]], "config": {"name": "activation_11", "trainable": false, "activation": "relu"}, "class_name": "Activation"}, {"name": "res3a_branch2b", "inbound_nodes": [[["activation_11", 0, 0, {}]]], "config": {"kernel_size": [3, 3], "strides": [1, 1], "kernel_regularizer": null, "use_bias": true, "activation": "linear", "bias_regularizer": null, "filters": 128, "trainable": false, "data_format": "channels_last", "activity_regularizer": null, "padding": "same", "dilation_rate": [1, 1], "name": "res3a_branch2b", "bias_constraint": null, "kernel_initializer": {"config": {"scale": 1.0, "seed": null, "distribution": "uniform", "mode": "fan_avg"}, "class_name": "VarianceScaling"}, "bias_initializer": {"config": {}, "class_name": "Zeros"}, "kernel_constraint": null}, "class_name": "Conv2D"}, {"name": "bn3a_branch2b", "inbound_nodes": [[["res3a_branch2b", 0, 0, {}]]], "config": {"gamma_initializer": {"config": {}, "class_name": "Ones"}, "beta_constraint": null, "moving_variance_initializer": {"config": {}, "class_name": "Ones"}, "axis": 3, "moving_mean_initializer": {"config": {}, "class_name": "Zeros"}, "center": true, "gamma_constraint": null, "scale": true, "name": "bn3a_branch2b", "beta_regularizer": null, "epsilon": 0.001, "trainable": false, "beta_initializer": {"config": {}, "class_name": "Zeros"}, "momentum": 0.99, "gamma_regularizer": null}, "class_name": "BatchNormalization"}, {"name": "activation_12", "inbound_nodes": [[["bn3a_branch2b", 0, 0, {}]]], "config": {"name": "activation_12", "trainable": false, "activation": "relu"}, "class_name": "Activation"}, {"name": "res3a_branch2c", "inbound_nodes": [[["activation_12", 0, 0, {}]]], "config": {"kernel_size": [1, 1], "strides": [1, 1], "kernel_regularizer": null, "use_bias": true, "activation": "linear", "bias_regularizer": null, "filters": 512, "trainable": false, "data_format": "channels_last", "activity_regularizer": null, "padding": "valid", "dilation_rate": [1, 1], "name": "res3a_branch2c", "bias_constraint": null, "kernel_initializer": {"config": {"scale": 1.0, "seed": null, "distribution": "uniform", "mode": "fan_avg"}, "class_name": "VarianceScaling"}, "bias_initializer": {"config": {}, "class_name": "Zeros"}, "kernel_constraint": null}, "class_name": "Conv2D"}, {"name": "res3a_branch1", "inbound_nodes": [[["activation_10", 0, 0, {}]]], "config": {"kernel_size": [1, 1], "strides": [2, 2], "kernel_regularizer": null, "use_bias": true, "activation": "linear", "bias_regularizer": null, "filters": 512, "trainable": false, "data_format": "channels_last", "activity_regularizer": null, "padding": "valid", "dilation_rate": [1, 1], "name": "res3a_branch1", "bias_constraint": null, "kernel_initializer": {"config": {"scale": 1.0, "seed": null, "distribution": "uniform", "mode": "fan_avg"}, "class_name": "VarianceScaling"}, "bias_initializer": {"config": {}, "class_name": "Zeros"}, "kernel_constraint": null}, "class_name": "Conv2D"}, {"name": "bn3a_branch2c", "inbound_nodes": [[["res3a_branch2c", 0, 0, {}]]], "config": {"gamma_initializer": {"config": {}, "class_name": "Ones"}, "beta_constraint": null, "moving_variance_initializer": {"config": {}, "class_name": "Ones"}, "axis": 3, "moving_mean_initializer": {"config": {}, "class_name": "Zeros"}, "center": true, "gamma_constraint": null, "scale": true, "name": "bn3a_branch2c", "beta_regularizer": null, "epsilon": 0.001, "trainable": false, "beta_initializer": {"config": {}, "class_name": "Zeros"}, "momentum": 0.99, "gamma_regularizer": null}, "class_name": "BatchNormalization"}, {"name": "bn3a_branch1", "inbound_nodes": [[["res3a_branch1", 0, 0, {}]]], "config": {"gamma_initializer": {"config": {}, "class_name": "Ones"}, "beta_constraint": null, "moving_variance_initializer": {"config": {}, "class_name": "Ones"}, "axis": 3, "moving_mean_initializer": {"config": {}, "class_name": "Zeros"}, "center": true, "gamma_constraint": null, "scale": true, "name": "bn3a_branch1", "beta_regularizer": null, "epsilon": 0.001, "trainable": false, "beta_initializer": {"config": {}, "class_name": "Zeros"}, "momentum": 0.99, "gamma_regularizer": null}, "class_name": "BatchNormalization"}, {"name": "add_4", "inbound_nodes": [[["bn3a_branch2c", 0, 0, {}], ["bn3a_branch1", 0, 0, {}]]], "config": {"name": "add_4", "trainable": false}, "class_name": "Add"}, {"name": "activation_13", "inbound_nodes": [[["add_4", 0, 0, {}]]], "config": {"name": "activation_13", "trainable": false, "activation": "relu"}, "class_name": "Activation"}, {"name": "res3b_branch2a", "inbound_nodes": [[["activation_13", 0, 0, {}]]], "config": {"kernel_size": [1, 1], "strides": [1, 1], "kernel_regularizer": null, "use_bias": true, "activation": "linear", "bias_regularizer": null, "filters": 128, "trainable": false, "data_format": "channels_last", "activity_regularizer": null, "padding": "valid", "dilation_rate": [1, 1], "name": "res3b_branch2a", "bias_constraint": null, "kernel_initializer": {"config": {"scale": 1.0, "seed": null, "distribution": "uniform", "mode": "fan_avg"}, "class_name": "VarianceScaling"}, "bias_initializer": {"config": {}, "class_name": "Zeros"}, "kernel_constraint": null}, "class_name": "Conv2D"}, {"name": "bn3b_branch2a", "inbound_nodes": [[["res3b_branch2a", 0, 0, {}]]], "config": {"gamma_initializer": {"config": {}, "class_name": "Ones"}, "beta_constraint": null, "moving_variance_initializer": {"config": {}, "class_name": "Ones"}, "axis": 3, "moving_mean_initializer": {"config": {}, "class_name": "Zeros"}, "center": true, "gamma_constraint": null, "scale": true, "name": "bn3b_branch2a", "beta_regularizer": null, "epsilon": 0.001, "trainable": false, "beta_initializer": {"config": {}, "class_name": "Zeros"}, "momentum": 0.99, "gamma_regularizer": null}, "class_name": "BatchNormalization"}, {"name": "activation_14", "inbound_nodes": [[["bn3b_branch2a", 0, 0, {}]]], "config": {"name": "activation_14", "trainable": false, "activation": "relu"}, "class_name": "Activation"}, {"name": "res3b_branch2b", "inbound_nodes": [[["activation_14", 0, 0, {}]]], "config": {"kernel_size": [3, 3], "strides": [1, 1], "kernel_regularizer": null, "use_bias": true, "activation": "linear", "bias_regularizer": null, "filters": 128, "trainable": false, "data_format": "channels_last", "activity_regularizer": null, "padding": "same", "dilation_rate": [1, 1], "name": "res3b_branch2b", "bias_constraint": null, "kernel_initializer": {"config": {"scale": 1.0, "seed": null, "distribution": "uniform", "mode": "fan_avg"}, "class_name": "VarianceScaling"}, "bias_initializer": {"config": {}, "class_name": "Zeros"}, "kernel_constraint": null}, "class_name": "Conv2D"}, {"name": "bn3b_branch2b", "inbound_nodes": [[["res3b_branch2b", 0, 0, {}]]], "config": {"gamma_initializer": {"config": {}, "class_name": "Ones"}, "beta_constraint": null, "moving_variance_initializer": {"config": {}, "class_name": "Ones"}, "axis": 3, "moving_mean_initializer": {"config": {}, "class_name": "Zeros"}, "center": true, "gamma_constraint": null, "scale": true, "name": "bn3b_branch2b", "beta_regularizer": null, "epsilon": 0.001, "trainable": false, "beta_initializer": {"config": {}, "class_name": "Zeros"}, "momentum": 0.99, "gamma_regularizer": null}, "class_name": "BatchNormalization"}, {"name": "activation_15", "inbound_nodes": [[["bn3b_branch2b", 0, 0, {}]]], "config": {"name": "activation_15", "trainable": false, "activation": "relu"}, "class_name": "Activation"}, {"name": "res3b_branch2c", "inbound_nodes": [[["activation_15", 0, 0, {}]]], "config": {"kernel_size": [1, 1], "strides": [1, 1], "kernel_regularizer": null, "use_bias": true, "activation": "linear", "bias_regularizer": null, "filters": 512, "trainable": false, "data_format": "channels_last", "activity_regularizer": null, "padding": "valid", "dilation_rate": [1, 1], "name": "res3b_branch2c", "bias_constraint": null, "kernel_initializer": {"config": {"scale": 1.0, "seed": null, "distribution": "uniform", "mode": "fan_avg"}, "class_name": "VarianceScaling"}, "bias_initializer": {"config": {}, "class_name": "Zeros"}, "kernel_constraint": null}, "class_name": "Conv2D"}, {"name": "bn3b_branch2c", "inbound_nodes": [[["res3b_branch2c", 0, 0, {}]]], "config": {"gamma_initializer": {"config": {}, "class_name": "Ones"}, "beta_constraint": null, "moving_variance_initializer": {"config": {}, "class_name": "Ones"}, "axis": 3, "moving_mean_initializer": {"config": {}, "class_name": "Zeros"}, "center": true, "gamma_constraint": null, "scale": true, "name": "bn3b_branch2c", "beta_regularizer": null, "epsilon": 0.001, "trainable": false, "beta_initializer": {"config": {}, "class_name": "Zeros"}, "momentum": 0.99, "gamma_regularizer": null}, "class_name": "BatchNormalization"}, {"name": "add_5", "inbound_nodes": [[["bn3b_branch2c", 0, 0, {}], ["activation_13", 0, 0, {}]]], "config": {"name": "add_5", "trainable": false}, "class_name": "Add"}, {"name": "activation_16", "inbound_nodes": [[["add_5", 0, 0, {}]]], "config": {"name": "activation_16", "trainable": false, "activation": "relu"}, "class_name": "Activation"}, {"name": "res3c_branch2a", "inbound_nodes": [[["activation_16", 0, 0, {}]]], "config": {"kernel_size": [1, 1], "strides": [1, 1], "kernel_regularizer": null, "use_bias": true, "activation": "linear", "bias_regularizer": null, "filters": 128, "trainable": false, "data_format": "channels_last", "activity_regularizer": null, "padding": "valid", "dilation_rate": [1, 1], "name": "res3c_branch2a", "bias_constraint": null, "kernel_initializer": {"config": {"scale": 1.0, "seed": null, "distribution": "uniform", "mode": "fan_avg"}, "class_name": "VarianceScaling"}, "bias_initializer": {"config": {}, "class_name": "Zeros"}, "kernel_constraint": null}, "class_name": "Conv2D"}, {"name": "bn3c_branch2a", "inbound_nodes": [[["res3c_branch2a", 0, 0, {}]]], "config": {"gamma_initializer": {"config": {}, "class_name": "Ones"}, "beta_constraint": null, "moving_variance_initializer": {"config": {}, "class_name": "Ones"}, "axis": 3, "moving_mean_initializer": {"config": {}, "class_name": "Zeros"}, "center": true, "gamma_constraint": null, "scale": true, "name": "bn3c_branch2a", "beta_regularizer": null, "epsilon": 0.001, "trainable": false, "beta_initializer": {"config": {}, "class_name": "Zeros"}, "momentum": 0.99, "gamma_regularizer": null}, "class_name": "BatchNormalization"}, {"name": "activation_17", "inbound_nodes": [[["bn3c_branch2a", 0, 0, {}]]], "config": {"name": "activation_17", "trainable": false, "activation": "relu"}, "class_name": "Activation"}, {"name": "res3c_branch2b", "inbound_nodes": [[["activation_17", 0, 0, {}]]], "config": {"kernel_size": [3, 3], "strides": [1, 1], "kernel_regularizer": null, "use_bias": true, "activation": "linear", "bias_regularizer": null, "filters": 128, "trainable": false, "data_format": "channels_last", "activity_regularizer": null, "padding": "same", "dilation_rate": [1, 1], "name": "res3c_branch2b", "bias_constraint": null, "kernel_initializer": {"config": {"scale": 1.0, "seed": null, "distribution": "uniform", "mode": "fan_avg"}, "class_name": "VarianceScaling"}, "bias_initializer": {"config": {}, "class_name": "Zeros"}, "kernel_constraint": null}, "class_name": "Conv2D"}, {"name": "bn3c_branch2b", "inbound_nodes": [[["res3c_branch2b", 0, 0, {}]]], "config": {"gamma_initializer": {"config": {}, "class_name": "Ones"}, "beta_constraint": null, "moving_variance_initializer": {"config": {}, "class_name": "Ones"}, "axis": 3, "moving_mean_initializer": {"config": {}, "class_name": "Zeros"}, "center": true, "gamma_constraint": null, "scale": true, "name": "bn3c_branch2b", "beta_regularizer": null, "epsilon": 0.001, "trainable": false, "beta_initializer": {"config": {}, "class_name": "Zeros"}, "momentum": 0.99, "gamma_regularizer": null}, "class_name": "BatchNormalization"}, {"name": "activation_18", "inbound_nodes": [[["bn3c_branch2b", 0, 0, {}]]], "config": {"name": "activation_18", "trainable": false, "activation": "relu"}, "class_name": "Activation"}, {"name": "res3c_branch2c", "inbound_nodes": [[["activation_18", 0, 0, {}]]], "config": {"kernel_size": [1, 1], "strides": [1, 1], "kernel_regularizer": null, "use_bias": true, "activation": "linear", "bias_regularizer": null, "filters": 512, "trainable": false, "data_format": "channels_last", "activity_regularizer": null, "padding": "valid", "dilation_rate": [1, 1], "name": "res3c_branch2c", "bias_constraint": null, "kernel_initializer": {"config": {"scale": 1.0, "seed": null, "distribution": "uniform", "mode": "fan_avg"}, "class_name": "VarianceScaling"}, "bias_initializer": {"config": {}, "class_name": "Zeros"}, "kernel_constraint": null}, "class_name": "Conv2D"}, {"name": "bn3c_branch2c", "inbound_nodes": [[["res3c_branch2c", 0, 0, {}]]], "config": {"gamma_initializer": {"config": {}, "class_name": "Ones"}, "beta_constraint": null, "moving_variance_initializer": {"config": {}, "class_name": "Ones"}, "axis": 3, "moving_mean_initializer": {"config": {}, "class_name": "Zeros"}, "center": true, "gamma_constraint": null, "scale": true, "name": "bn3c_branch2c", "beta_regularizer": null, "epsilon": 0.001, "trainable": false, "beta_initializer": {"config": {}, "class_name": "Zeros"}, "momentum": 0.99, "gamma_regularizer": null}, "class_name": "BatchNormalization"}, {"name": "add_6", "inbound_nodes": [[["bn3c_branch2c", 0, 0, {}], ["activation_16", 0, 0, {}]]], "config": {"name": "add_6", "trainable": false}, "class_name": "Add"}, {"name": "activation_19", "inbound_nodes": [[["add_6", 0, 0, {}]]], "config": {"name": "activation_19", "trainable": false, "activation": "relu"}, "class_name": "Activation"}, {"name": "res3d_branch2a", "inbound_nodes": [[["activation_19", 0, 0, {}]]], "config": {"kernel_size": [1, 1], "strides": [1, 1], "kernel_regularizer": null, "use_bias": true, "activation": "linear", "bias_regularizer": null, "filters": 128, "trainable": false, "data_format": "channels_last", "activity_regularizer": null, "padding": "valid", "dilation_rate": [1, 1], "name": "res3d_branch2a", "bias_constraint": null, "kernel_initializer": {"config": {"scale": 1.0, "seed": null, "distribution": "uniform", "mode": "fan_avg"}, "class_name": "VarianceScaling"}, "bias_initializer": {"config": {}, "class_name": "Zeros"}, "kernel_constraint": null}, "class_name": "Conv2D"}, {"name": "bn3d_branch2a", "inbound_nodes": [[["res3d_branch2a", 0, 0, {}]]], "config": {"gamma_initializer": {"config": {}, "class_name": "Ones"}, "beta_constraint": null, "moving_variance_initializer": {"config": {}, "class_name": "Ones"}, "axis": 3, "moving_mean_initializer": {"config": {}, "class_name": "Zeros"}, "center": true, "gamma_constraint": null, "scale": true, "name": "bn3d_branch2a", "beta_regularizer": null, "epsilon": 0.001, "trainable": false, "beta_initializer": {"config": {}, "class_name": "Zeros"}, "momentum": 0.99, "gamma_regularizer": null}, "class_name": "BatchNormalization"}, {"name": "activation_20", "inbound_nodes": [[["bn3d_branch2a", 0, 0, {}]]], "config": {"name": "activation_20", "trainable": false, "activation": "relu"}, "class_name": "Activation"}, {"name": "res3d_branch2b", "inbound_nodes": [[["activation_20", 0, 0, {}]]], "config": {"kernel_size": [3, 3], "strides": [1, 1], "kernel_regularizer": null, "use_bias": true, "activation": "linear", "bias_regularizer": null, "filters": 128, "trainable": false, "data_format": "channels_last", "activity_regularizer": null, "padding": "same", "dilation_rate": [1, 1], "name": "res3d_branch2b", "bias_constraint": null, "kernel_initializer": {"config": {"scale": 1.0, "seed": null, "distribution": "uniform", "mode": "fan_avg"}, "class_name": "VarianceScaling"}, "bias_initializer": {"config": {}, "class_name": "Zeros"}, "kernel_constraint": null}, "class_name": "Conv2D"}, {"name": "bn3d_branch2b", "inbound_nodes": [[["res3d_branch2b", 0, 0, {}]]], "config": {"gamma_initializer": {"config": {}, "class_name": "Ones"}, "beta_constraint": null, "moving_variance_initializer": {"config": {}, "class_name": "Ones"}, "axis": 3, "moving_mean_initializer": {"config": {}, "class_name": "Zeros"}, "center": true, "gamma_constraint": null, "scale": true, "name": "bn3d_branch2b", "beta_regularizer": null, "epsilon": 0.001, "trainable": false, "beta_initializer": {"config": {}, "class_name": "Zeros"}, "momentum": 0.99, "gamma_regularizer": null}, "class_name": "BatchNormalization"}, {"name": "activation_21", "inbound_nodes": [[["bn3d_branch2b", 0, 0, {}]]], "config": {"name": "activation_21", "trainable": false, "activation": "relu"}, "class_name": "Activation"}, {"name": "res3d_branch2c", "inbound_nodes": [[["activation_21", 0, 0, {}]]], "config": {"kernel_size": [1, 1], "strides": [1, 1], "kernel_regularizer": null, "use_bias": true, "activation": "linear", "bias_regularizer": null, "filters": 512, "trainable": false, "data_format": "channels_last", "activity_regularizer": null, "padding": "valid", "dilation_rate": [1, 1], "name": "res3d_branch2c", "bias_constraint": null, "kernel_initializer": {"config": {"scale": 1.0, "seed": null, "distribution": "uniform", "mode": "fan_avg"}, "class_name": "VarianceScaling"}, "bias_initializer": {"config": {}, "class_name": "Zeros"}, "kernel_constraint": null}, "class_name": "Conv2D"}, {"name": "bn3d_branch2c", "inbound_nodes": [[["res3d_branch2c", 0, 0, {}]]], "config": {"gamma_initializer": {"config": {}, "class_name": "Ones"}, "beta_constraint": null, "moving_variance_initializer": {"config": {}, "class_name": "Ones"}, "axis": 3, "moving_mean_initializer": {"config": {}, "class_name": "Zeros"}, "center": true, "gamma_constraint": null, "scale": true, "name": "bn3d_branch2c", "beta_regularizer": null, "epsilon": 0.001, "trainable": false, "beta_initializer": {"config": {}, "class_name": "Zeros"}, "momentum": 0.99, "gamma_regularizer": null}, "class_name": "BatchNormalization"}, {"name": "add_7", "inbound_nodes": [[["bn3d_branch2c", 0, 0, {}], ["activation_19", 0, 0, {}]]], "config": {"name": "add_7", "trainable": false}, "class_name": "Add"}, {"name": "activation_22", "inbound_nodes": [[["add_7", 0, 0, {}]]], "config": {"name": "activation_22", "trainable": false, "activation": "relu"}, "class_name": "Activation"}, {"name": "res4a_branch2a", "inbound_nodes": [[["activation_22", 0, 0, {}]]], "config": {"kernel_size": [1, 1], "strides": [2, 2], "kernel_regularizer": null, "use_bias": true, "activation": "linear", "bias_regularizer": null, "filters": 256, "trainable": false, "data_format": "channels_last", "activity_regularizer": null, "padding": "valid", "dilation_rate": [1, 1], "name": "res4a_branch2a", "bias_constraint": null, "kernel_initializer": {"config": {"scale": 1.0, "seed": null, "distribution": "uniform", "mode": "fan_avg"}, "class_name": "VarianceScaling"}, "bias_initializer": {"config": {}, "class_name": "Zeros"}, "kernel_constraint": null}, "class_name": "Conv2D"}, {"name": "bn4a_branch2a", "inbound_nodes": [[["res4a_branch2a", 0, 0, {}]]], "config": {"gamma_initializer": {"config": {}, "class_name": "Ones"}, "beta_constraint": null, "moving_variance_initializer": {"config": {}, "class_name": "Ones"}, "axis": 3, "moving_mean_initializer": {"config": {}, "class_name": "Zeros"}, "center": true, "gamma_constraint": null, "scale": true, "name": "bn4a_branch2a", "beta_regularizer": null, "epsilon": 0.001, "trainable": false, "beta_initializer": {"config": {}, "class_name": "Zeros"}, "momentum": 0.99, "gamma_regularizer": null}, "class_name": "BatchNormalization"}, {"name": "activation_23", "inbound_nodes": [[["bn4a_branch2a", 0, 0, {}]]], "config": {"name": "activation_23", "trainable": false, "activation": "relu"}, "class_name": "Activation"}, {"name": "res4a_branch2b", "inbound_nodes": [[["activation_23", 0, 0, {}]]], "config": {"kernel_size": [3, 3], "strides": [1, 1], "kernel_regularizer": null, "use_bias": true, "activation": "linear", "bias_regularizer": null, "filters": 256, "trainable": false, "data_format": "channels_last", "activity_regularizer": null, "padding": "same", "dilation_rate": [1, 1], "name": "res4a_branch2b", "bias_constraint": null, "kernel_initializer": {"config": {"scale": 1.0, "seed": null, "distribution": "uniform", "mode": "fan_avg"}, "class_name": "VarianceScaling"}, "bias_initializer": {"config": {}, "class_name": "Zeros"}, "kernel_constraint": null}, "class_name": "Conv2D"}, {"name": "bn4a_branch2b", "inbound_nodes": [[["res4a_branch2b", 0, 0, {}]]], "config": {"gamma_initializer": {"config": {}, "class_name": "Ones"}, "beta_constraint": null, "moving_variance_initializer": {"config": {}, "class_name": "Ones"}, "axis": 3, "moving_mean_initializer": {"config": {}, "class_name": "Zeros"}, "center": true, "gamma_constraint": null, "scale": true, "name": "bn4a_branch2b", "beta_regularizer": null, "epsilon": 0.001, "trainable": false, "beta_initializer": {"config": {}, "class_name": "Zeros"}, "momentum": 0.99, "gamma_regularizer": null}, "class_name": "BatchNormalization"}, {"name": "activation_24", "inbound_nodes": [[["bn4a_branch2b", 0, 0, {}]]], "config": {"name": "activation_24", "trainable": false, "activation": "relu"}, "class_name": "Activation"}, {"name": "res4a_branch2c", "inbound_nodes": [[["activation_24", 0, 0, {}]]], "config": {"kernel_size": [1, 1], "strides": [1, 1], "kernel_regularizer": null, "use_bias": true, "activation": "linear", "bias_regularizer": null, "filters": 1024, "trainable": false, "data_format": "channels_last", "activity_regularizer": null, "padding": "valid", "dilation_rate": [1, 1], "name": "res4a_branch2c", "bias_constraint": null, "kernel_initializer": {"config": {"scale": 1.0, "seed": null, "distribution": "uniform", "mode": "fan_avg"}, "class_name": "VarianceScaling"}, "bias_initializer": {"config": {}, "class_name": "Zeros"}, "kernel_constraint": null}, "class_name": "Conv2D"}, {"name": "res4a_branch1", "inbound_nodes": [[["activation_22", 0, 0, {}]]], "config": {"kernel_size": [1, 1], "strides": [2, 2], "kernel_regularizer": null, "use_bias": true, "activation": "linear", "bias_regularizer": null, "filters": 1024, "trainable": false, "data_format": "channels_last", "activity_regularizer": null, "padding": "valid", "dilation_rate": [1, 1], "name": "res4a_branch1", "bias_constraint": null, "kernel_initializer": {"config": {"scale": 1.0, "seed": null, "distribution": "uniform", "mode": "fan_avg"}, "class_name": "VarianceScaling"}, "bias_initializer": {"config": {}, "class_name": "Zeros"}, "kernel_constraint": null}, "class_name": "Conv2D"}, {"name": "bn4a_branch2c", "inbound_nodes": [[["res4a_branch2c", 0, 0, {}]]], "config": {"gamma_initializer": {"config": {}, "class_name": "Ones"}, "beta_constraint": null, "moving_variance_initializer": {"config": {}, "class_name": "Ones"}, "axis": 3, "moving_mean_initializer": {"config": {}, "class_name": "Zeros"}, "center": true, "gamma_constraint": null, "scale": true, "name": "bn4a_branch2c", "beta_regularizer": null, "epsilon": 0.001, "trainable": false, "beta_initializer": {"config": {}, "class_name": "Zeros"}, "momentum": 0.99, "gamma_regularizer": null}, "class_name": "BatchNormalization"}, {"name": "bn4a_branch1", "inbound_nodes": [[["res4a_branch1", 0, 0, {}]]], "config": {"gamma_initializer": {"config": {}, "class_name": "Ones"}, "beta_constraint": null, "moving_variance_initializer": {"config": {}, "class_name": "Ones"}, "axis": 3, "moving_mean_initializer": {"config": {}, "class_name": "Zeros"}, "center": true, "gamma_constraint": null, "scale": true, "name": "bn4a_branch1", "beta_regularizer": null, "epsilon": 0.001, "trainable": false, "beta_initializer": {"config": {}, "class_name": "Zeros"}, "momentum": 0.99, "gamma_regularizer": null}, "class_name": "BatchNormalization"}, {"name": "add_8", "inbound_nodes": [[["bn4a_branch2c", 0, 0, {}], ["bn4a_branch1", 0, 0, {}]]], "config": {"name": "add_8", "trainable": false}, "class_name": "Add"}, {"name": "activation_25", "inbound_nodes": [[["add_8", 0, 0, {}]]], "config": {"name": "activation_25", "trainable": false, "activation": "relu"}, "class_name": "Activation"}, {"name": "res4b_branch2a", "inbound_nodes": [[["activation_25", 0, 0, {}]]], "config": {"kernel_size": [1, 1], "strides": [1, 1], "kernel_regularizer": null, "use_bias": true, "activation": "linear", "bias_regularizer": null, "filters": 256, "trainable": false, "data_format": "channels_last", "activity_regularizer": null, "padding": "valid", "dilation_rate": [1, 1], "name": "res4b_branch2a", "bias_constraint": null, "kernel_initializer": {"config": {"scale": 1.0, "seed": null, "distribution": "uniform", "mode": "fan_avg"}, "class_name": "VarianceScaling"}, "bias_initializer": {"config": {}, "class_name": "Zeros"}, "kernel_constraint": null}, "class_name": "Conv2D"}, {"name": "bn4b_branch2a", "inbound_nodes": [[["res4b_branch2a", 0, 0, {}]]], "config": {"gamma_initializer": {"config": {}, "class_name": "Ones"}, "beta_constraint": null, "moving_variance_initializer": {"config": {}, "class_name": "Ones"}, "axis": 3, "moving_mean_initializer": {"config": {}, "class_name": "Zeros"}, "center": true, "gamma_constraint": null, "scale": true, "name": "bn4b_branch2a", "beta_regularizer": null, "epsilon": 0.001, "trainable": false, "beta_initializer": {"config": {}, "class_name": "Zeros"}, "momentum": 0.99, "gamma_regularizer": null}, "class_name": "BatchNormalization"}, {"name": "activation_26", "inbound_nodes": [[["bn4b_branch2a", 0, 0, {}]]], "config": {"name": "activation_26", "trainable": false, "activation": "relu"}, "class_name": "Activation"}, {"name": "res4b_branch2b", "inbound_nodes": [[["activation_26", 0, 0, {}]]], "config": {"kernel_size": [3, 3], "strides": [1, 1], "kernel_regularizer": null, "use_bias": true, "activation": "linear", "bias_regularizer": null, "filters": 256, "trainable": false, "data_format": "channels_last", "activity_regularizer": null, "padding": "same", "dilation_rate": [1, 1], "name": "res4b_branch2b", "bias_constraint": null, "kernel_initializer": {"config": {"scale": 1.0, "seed": null, "distribution": "uniform", "mode": "fan_avg"}, "class_name": "VarianceScaling"}, "bias_initializer": {"config": {}, "class_name": "Zeros"}, "kernel_constraint": null}, "class_name": "Conv2D"}, {"name": "bn4b_branch2b", "inbound_nodes": [[["res4b_branch2b", 0, 0, {}]]], "config": {"gamma_initializer": {"config": {}, "class_name": "Ones"}, "beta_constraint": null, "moving_variance_initializer": {"config": {}, "class_name": "Ones"}, "axis": 3, "moving_mean_initializer": {"config": {}, "class_name": "Zeros"}, "center": true, "gamma_constraint": null, "scale": true, "name": "bn4b_branch2b", "beta_regularizer": null, "epsilon": 0.001, "trainable": false, "beta_initializer": {"config": {}, "class_name": "Zeros"}, "momentum": 0.99, "gamma_regularizer": null}, "class_name": "BatchNormalization"}, {"name": "activation_27", "inbound_nodes": [[["bn4b_branch2b", 0, 0, {}]]], "config": {"name": "activation_27", "trainable": false, "activation": "relu"}, "class_name": "Activation"}, {"name": "res4b_branch2c", "inbound_nodes": [[["activation_27", 0, 0, {}]]], "config": {"kernel_size": [1, 1], "strides": [1, 1], "kernel_regularizer": null, "use_bias": true, "activation": "linear", "bias_regularizer": null, "filters": 1024, "trainable": false, "data_format": "channels_last", "activity_regularizer": null, "padding": "valid", "dilation_rate": [1, 1], "name": "res4b_branch2c", "bias_constraint": null, "kernel_initializer": {"config": {"scale": 1.0, "seed": null, "distribution": "uniform", "mode": "fan_avg"}, "class_name": "VarianceScaling"}, "bias_initializer": {"config": {}, "class_name": "Zeros"}, "kernel_constraint": null}, "class_name": "Conv2D"}, {"name": "bn4b_branch2c", "inbound_nodes": [[["res4b_branch2c", 0, 0, {}]]], "config": {"gamma_initializer": {"config": {}, "class_name": "Ones"}, "beta_constraint": null, "moving_variance_initializer": {"config": {}, "class_name": "Ones"}, "axis": 3, "moving_mean_initializer": {"config": {}, "class_name": "Zeros"}, "center": true, "gamma_constraint": null, "scale": true, "name": "bn4b_branch2c", "beta_regularizer": null, "epsilon": 0.001, "trainable": false, "beta_initializer": {"config": {}, "class_name": "Zeros"}, "momentum": 0.99, "gamma_regularizer": null}, "class_name": "BatchNormalization"}, {"name": "add_9", "inbound_nodes": [[["bn4b_branch2c", 0, 0, {}], ["activation_25", 0, 0, {}]]], "config": {"name": "add_9", "trainable": false}, "class_name": "Add"}, {"name": "activation_28", "inbound_nodes": [[["add_9", 0, 0, {}]]], "config": {"name": "activation_28", "trainable": false, "activation": "relu"}, "class_name": "Activation"}, {"name": "res4c_branch2a", "inbound_nodes": [[["activation_28", 0, 0, {}]]], "config": {"kernel_size": [1, 1], "strides": [1, 1], "kernel_regularizer": null, "use_bias": true, "activation": "linear", "bias_regularizer": null, "filters": 256, "trainable": false, "data_format": "channels_last", "activity_regularizer": null, "padding": "valid", "dilation_rate": [1, 1], "name": "res4c_branch2a", "bias_constraint": null, "kernel_initializer": {"config": {"scale": 1.0, "seed": null, "distribution": "uniform", "mode": "fan_avg"}, "class_name": "VarianceScaling"}, "bias_initializer": {"config": {}, "class_name": "Zeros"}, "kernel_constraint": null}, "class_name": "Conv2D"}, {"name": "bn4c_branch2a", "inbound_nodes": [[["res4c_branch2a", 0, 0, {}]]], "config": {"gamma_initializer": {"config": {}, "class_name": "Ones"}, "beta_constraint": null, "moving_variance_initializer": {"config": {}, "class_name": "Ones"}, "axis": 3, "moving_mean_initializer": {"config": {}, "class_name": "Zeros"}, "center": true, "gamma_constraint": null, "scale": true, "name": "bn4c_branch2a", "beta_regularizer": null, "epsilon": 0.001, "trainable": false, "beta_initializer": {"config": {}, "class_name": "Zeros"}, "momentum": 0.99, "gamma_regularizer": null}, "class_name": "BatchNormalization"}, {"name": "activation_29", "inbound_nodes": [[["bn4c_branch2a", 0, 0, {}]]], "config": {"name": "activation_29", "trainable": false, "activation": "relu"}, "class_name": "Activation"}, {"name": "res4c_branch2b", "inbound_nodes": [[["activation_29", 0, 0, {}]]], "config": {"kernel_size": [3, 3], "strides": [1, 1], "kernel_regularizer": null, "use_bias": true, "activation": "linear", "bias_regularizer": null, "filters": 256, "trainable": false, "data_format": "channels_last", "activity_regularizer": null, "padding": "same", "dilation_rate": [1, 1], "name": "res4c_branch2b", "bias_constraint": null, "kernel_initializer": {"config": {"scale": 1.0, "seed": null, "distribution": "uniform", "mode": "fan_avg"}, "class_name": "VarianceScaling"}, "bias_initializer": {"config": {}, "class_name": "Zeros"}, "kernel_constraint": null}, "class_name": "Conv2D"}, {"name": "bn4c_branch2b", "inbound_nodes": [[["res4c_branch2b", 0, 0, {}]]], "config": {"gamma_initializer": {"config": {}, "class_name": "Ones"}, "beta_constraint": null, "moving_variance_initializer": {"config": {}, "class_name": "Ones"}, "axis": 3, "moving_mean_initializer": {"config": {}, "class_name": "Zeros"}, "center": true, "gamma_constraint": null, "scale": true, "name": "bn4c_branch2b", "beta_regularizer": null, "epsilon": 0.001, "trainable": false, "beta_initializer": {"config": {}, "class_name": "Zeros"}, "momentum": 0.99, "gamma_regularizer": null}, "class_name": "BatchNormalization"}, {"name": "activation_30", "inbound_nodes": [[["bn4c_branch2b", 0, 0, {}]]], "config": {"name": "activation_30", "trainable": false, "activation": "relu"}, "class_name": "Activation"}, {"name": "res4c_branch2c", "inbound_nodes": [[["activation_30", 0, 0, {}]]], "config": {"kernel_size": [1, 1], "strides": [1, 1], "kernel_regularizer": null, "use_bias": true, "activation": "linear", "bias_regularizer": null, "filters": 1024, "trainable": false, "data_format": "channels_last", "activity_regularizer": null, "padding": "valid", "dilation_rate": [1, 1], "name": "res4c_branch2c", "bias_constraint": null, "kernel_initializer": {"config": {"scale": 1.0, "seed": null, "distribution": "uniform", "mode": "fan_avg"}, "class_name": "VarianceScaling"}, "bias_initializer": {"config": {}, "class_name": "Zeros"}, "kernel_constraint": null}, "class_name": "Conv2D"}, {"name": "bn4c_branch2c", "inbound_nodes": [[["res4c_branch2c", 0, 0, {}]]], "config": {"gamma_initializer": {"config": {}, "class_name": "Ones"}, "beta_constraint": null, "moving_variance_initializer": {"config": {}, "class_name": "Ones"}, "axis": 3, "moving_mean_initializer": {"config": {}, "class_name": "Zeros"}, "center": true, "gamma_constraint": null, "scale": true, "name": "bn4c_branch2c", "beta_regularizer": null, "epsilon": 0.001, "trainable": false, "beta_initializer": {"config": {}, "class_name": "Zeros"}, "momentum": 0.99, "gamma_regularizer": null}, "class_name": "BatchNormalization"}, {"name": "add_10", "inbound_nodes": [[["bn4c_branch2c", 0, 0, {}], ["activation_28", 0, 0, {}]]], "config": {"name": "add_10", "trainable": false}, "class_name": "Add"}, {"name": "activation_31", "inbound_nodes": [[["add_10", 0, 0, {}]]], "config": {"name": "activation_31", "trainable": false, "activation": "relu"}, "class_name": "Activation"}, {"name": "res4d_branch2a", "inbound_nodes": [[["activation_31", 0, 0, {}]]], "config": {"kernel_size": [1, 1], "strides": [1, 1], "kernel_regularizer": null, "use_bias": true, "activation": "linear", "bias_regularizer": null, "filters": 256, "trainable": false, "data_format": "channels_last", "activity_regularizer": null, "padding": "valid", "dilation_rate": [1, 1], "name": "res4d_branch2a", "bias_constraint": null, "kernel_initializer": {"config": {"scale": 1.0, "seed": null, "distribution": "uniform", "mode": "fan_avg"}, "class_name": "VarianceScaling"}, "bias_initializer": {"config": {}, "class_name": "Zeros"}, "kernel_constraint": null}, "class_name": "Conv2D"}, {"name": "bn4d_branch2a", "inbound_nodes": [[["res4d_branch2a", 0, 0, {}]]], "config": {"gamma_initializer": {"config": {}, "class_name": "Ones"}, "beta_constraint": null, "moving_variance_initializer": {"config": {}, "class_name": "Ones"}, "axis": 3, "moving_mean_initializer": {"config": {}, "class_name": "Zeros"}, "center": true, "gamma_constraint": null, "scale": true, "name": "bn4d_branch2a", "beta_regularizer": null, "epsilon": 0.001, "trainable": false, "beta_initializer": {"config": {}, "class_name": "Zeros"}, "momentum": 0.99, "gamma_regularizer": null}, "class_name": "BatchNormalization"}, {"name": "activation_32", "inbound_nodes": [[["bn4d_branch2a", 0, 0, {}]]], "config": {"name": "activation_32", "trainable": false, "activation": "relu"}, "class_name": "Activation"}, {"name": "res4d_branch2b", "inbound_nodes": [[["activation_32", 0, 0, {}]]], "config": {"kernel_size": [3, 3], "strides": [1, 1], "kernel_regularizer": null, "use_bias": true, "activation": "linear", "bias_regularizer": null, "filters": 256, "trainable": false, "data_format": "channels_last", "activity_regularizer": null, "padding": "same", "dilation_rate": [1, 1], "name": "res4d_branch2b", "bias_constraint": null, "kernel_initializer": {"config": {"scale": 1.0, "seed": null, "distribution": "uniform", "mode": "fan_avg"}, "class_name": "VarianceScaling"}, "bias_initializer": {"config": {}, "class_name": "Zeros"}, "kernel_constraint": null}, "class_name": "Conv2D"}, {"name": "bn4d_branch2b", "inbound_nodes": [[["res4d_branch2b", 0, 0, {}]]], "config": {"gamma_initializer": {"config": {}, "class_name": "Ones"}, "beta_constraint": null, "moving_variance_initializer": {"config": {}, "class_name": "Ones"}, "axis": 3, "moving_mean_initializer": {"config": {}, "class_name": "Zeros"}, "center": true, "gamma_constraint": null, "scale": true, "name": "bn4d_branch2b", "beta_regularizer": null, "epsilon": 0.001, "trainable": false, "beta_initializer": {"config": {}, "class_name": "Zeros"}, "momentum": 0.99, "gamma_regularizer": null}, "class_name": "BatchNormalization"}, {"name": "activation_33", "inbound_nodes": [[["bn4d_branch2b", 0, 0, {}]]], "config": {"name": "activation_33", "trainable": false, "activation": "relu"}, "class_name": "Activation"}, {"name": "res4d_branch2c", "inbound_nodes": [[["activation_33", 0, 0, {}]]], "config": {"kernel_size": [1, 1], "strides": [1, 1], "kernel_regularizer": null, "use_bias": true, "activation": "linear", "bias_regularizer": null, "filters": 1024, "trainable": false, "data_format": "channels_last", "activity_regularizer": null, "padding": "valid", "dilation_rate": [1, 1], "name": "res4d_branch2c", "bias_constraint": null, "kernel_initializer": {"config": {"scale": 1.0, "seed": null, "distribution": "uniform", "mode": "fan_avg"}, "class_name": "VarianceScaling"}, "bias_initializer": {"config": {}, "class_name": "Zeros"}, "kernel_constraint": null}, "class_name": "Conv2D"}, {"name": "bn4d_branch2c", "inbound_nodes": [[["res4d_branch2c", 0, 0, {}]]], "config": {"gamma_initializer": {"config": {}, "class_name": "Ones"}, "beta_constraint": null, "moving_variance_initializer": {"config": {}, "class_name": "Ones"}, "axis": 3, "moving_mean_initializer": {"config": {}, "class_name": "Zeros"}, "center": true, "gamma_constraint": null, "scale": true, "name": "bn4d_branch2c", "beta_regularizer": null, "epsilon": 0.001, "trainable": false, "beta_initializer": {"config": {}, "class_name": "Zeros"}, "momentum": 0.99, "gamma_regularizer": null}, "class_name": "BatchNormalization"}, {"name": "add_11", "inbound_nodes": [[["bn4d_branch2c", 0, 0, {}], ["activation_31", 0, 0, {}]]], "config": {"name": "add_11", "trainable": false}, "class_name": "Add"}, {"name": "activation_34", "inbound_nodes": [[["add_11", 0, 0, {}]]], "config": {"name": "activation_34", "trainable": false, "activation": "relu"}, "class_name": "Activation"}, {"name": "res4e_branch2a", "inbound_nodes": [[["activation_34", 0, 0, {}]]], "config": {"kernel_size": [1, 1], "strides": [1, 1], "kernel_regularizer": null, "use_bias": true, "activation": "linear", "bias_regularizer": null, "filters": 256, "trainable": false, "data_format": "channels_last", "activity_regularizer": null, "padding": "valid", "dilation_rate": [1, 1], "name": "res4e_branch2a", "bias_constraint": null, "kernel_initializer": {"config": {"scale": 1.0, "seed": null, "distribution": "uniform", "mode": "fan_avg"}, "class_name": "VarianceScaling"}, "bias_initializer": {"config": {}, "class_name": "Zeros"}, "kernel_constraint": null}, "class_name": "Conv2D"}, {"name": "bn4e_branch2a", "inbound_nodes": [[["res4e_branch2a", 0, 0, {}]]], "config": {"gamma_initializer": {"config": {}, "class_name": "Ones"}, "beta_constraint": null, "moving_variance_initializer": {"config": {}, "class_name": "Ones"}, "axis": 3, "moving_mean_initializer": {"config": {}, "class_name": "Zeros"}, "center": true, "gamma_constraint": null, "scale": true, "name": "bn4e_branch2a", "beta_regularizer": null, "epsilon": 0.001, "trainable": false, "beta_initializer": {"config": {}, "class_name": "Zeros"}, "momentum": 0.99, "gamma_regularizer": null}, "class_name": "BatchNormalization"}, {"name": "activation_35", "inbound_nodes": [[["bn4e_branch2a", 0, 0, {}]]], "config": {"name": "activation_35", "trainable": false, "activation": "relu"}, "class_name": "Activation"}, {"name": "res4e_branch2b", "inbound_nodes": [[["activation_35", 0, 0, {}]]], "config": {"kernel_size": [3, 3], "strides": [1, 1], "kernel_regularizer": null, "use_bias": true, "activation": "linear", "bias_regularizer": null, "filters": 256, "trainable": false, "data_format": "channels_last", "activity_regularizer": null, "padding": "same", "dilation_rate": [1, 1], "name": "res4e_branch2b", "bias_constraint": null, "kernel_initializer": {"config": {"scale": 1.0, "seed": null, "distribution": "uniform", "mode": "fan_avg"}, "class_name": "VarianceScaling"}, "bias_initializer": {"config": {}, "class_name": "Zeros"}, "kernel_constraint": null}, "class_name": "Conv2D"}, {"name": "bn4e_branch2b", "inbound_nodes": [[["res4e_branch2b", 0, 0, {}]]], "config": {"gamma_initializer": {"config": {}, "class_name": "Ones"}, "beta_constraint": null, "moving_variance_initializer": {"config": {}, "class_name": "Ones"}, "axis": 3, "moving_mean_initializer": {"config": {}, "class_name": "Zeros"}, "center": true, "gamma_constraint": null, "scale": true, "name": "bn4e_branch2b", "beta_regularizer": null, "epsilon": 0.001, "trainable": false, "beta_initializer": {"config": {}, "class_name": "Zeros"}, "momentum": 0.99, "gamma_regularizer": null}, "class_name": "BatchNormalization"}, {"name": "activation_36", "inbound_nodes": [[["bn4e_branch2b", 0, 0, {}]]], "config": {"name": "activation_36", "trainable": false, "activation": "relu"}, "class_name": "Activation"}, {"name": "res4e_branch2c", "inbound_nodes": [[["activation_36", 0, 0, {}]]], "config": {"kernel_size": [1, 1], "strides": [1, 1], "kernel_regularizer": null, "use_bias": true, "activation": "linear", "bias_regularizer": null, "filters": 1024, "trainable": false, "data_format": "channels_last", "activity_regularizer": null, "padding": "valid", "dilation_rate": [1, 1], "name": "res4e_branch2c", "bias_constraint": null, "kernel_initializer": {"config": {"scale": 1.0, "seed": null, "distribution": "uniform", "mode": "fan_avg"}, "class_name": "VarianceScaling"}, "bias_initializer": {"config": {}, "class_name": "Zeros"}, "kernel_constraint": null}, "class_name": "Conv2D"}, {"name": "bn4e_branch2c", "inbound_nodes": [[["res4e_branch2c", 0, 0, {}]]], "config": {"gamma_initializer": {"config": {}, "class_name": "Ones"}, "beta_constraint": null, "moving_variance_initializer": {"config": {}, "class_name": "Ones"}, "axis": 3, "moving_mean_initializer": {"config": {}, "class_name": "Zeros"}, "center": true, "gamma_constraint": null, "scale": true, "name": "bn4e_branch2c", "beta_regularizer": null, "epsilon": 0.001, "trainable": false, "beta_initializer": {"config": {}, "class_name": "Zeros"}, "momentum": 0.99, "gamma_regularizer": null}, "class_name": "BatchNormalization"}, {"name": "add_12", "inbound_nodes": [[["bn4e_branch2c", 0, 0, {}], ["activation_34", 0, 0, {}]]], "config": {"name": "add_12", "trainable": false}, "class_name": "Add"}, {"name": "activation_37", "inbound_nodes": [[["add_12", 0, 0, {}]]], "config": {"name": "activation_37", "trainable": false, "activation": "relu"}, "class_name": "Activation"}, {"name": "res4f_branch2a", "inbound_nodes": [[["activation_37", 0, 0, {}]]], "config": {"kernel_size": [1, 1], "strides": [1, 1], "kernel_regularizer": null, "use_bias": true, "activation": "linear", "bias_regularizer": null, "filters": 256, "trainable": false, "data_format": "channels_last", "activity_regularizer": null, "padding": "valid", "dilation_rate": [1, 1], "name": "res4f_branch2a", "bias_constraint": null, "kernel_initializer": {"config": {"scale": 1.0, "seed": null, "distribution": "uniform", "mode": "fan_avg"}, "class_name": "VarianceScaling"}, "bias_initializer": {"config": {}, "class_name": "Zeros"}, "kernel_constraint": null}, "class_name": "Conv2D"}, {"name": "bn4f_branch2a", "inbound_nodes": [[["res4f_branch2a", 0, 0, {}]]], "config": {"gamma_initializer": {"config": {}, "class_name": "Ones"}, "beta_constraint": null, "moving_variance_initializer": {"config": {}, "class_name": "Ones"}, "axis": 3, "moving_mean_initializer": {"config": {}, "class_name": "Zeros"}, "center": true, "gamma_constraint": null, "scale": true, "name": "bn4f_branch2a", "beta_regularizer": null, "epsilon": 0.001, "trainable": false, "beta_initializer": {"config": {}, "class_name": "Zeros"}, "momentum": 0.99, "gamma_regularizer": null}, "class_name": "BatchNormalization"}, {"name": "activation_38", "inbound_nodes": [[["bn4f_branch2a", 0, 0, {}]]], "config": {"name": "activation_38", "trainable": false, "activation": "relu"}, "class_name": "Activation"}, {"name": "res4f_branch2b", "inbound_nodes": [[["activation_38", 0, 0, {}]]], "config": {"kernel_size": [3, 3], "strides": [1, 1], "kernel_regularizer": null, "use_bias": true, "activation": "linear", "bias_regularizer": null, "filters": 256, "trainable": false, "data_format": "channels_last", "activity_regularizer": null, "padding": "same", "dilation_rate": [1, 1], "name": "res4f_branch2b", "bias_constraint": null, "kernel_initializer": {"config": {"scale": 1.0, "seed": null, "distribution": "uniform", "mode": "fan_avg"}, "class_name": "VarianceScaling"}, "bias_initializer": {"config": {}, "class_name": "Zeros"}, "kernel_constraint": null}, "class_name": "Conv2D"}, {"name": "bn4f_branch2b", "inbound_nodes": [[["res4f_branch2b", 0, 0, {}]]], "config": {"gamma_initializer": {"config": {}, "class_name": "Ones"}, "beta_constraint": null, "moving_variance_initializer": {"config": {}, "class_name": "Ones"}, "axis": 3, "moving_mean_initializer": {"config": {}, "class_name": "Zeros"}, "center": true, "gamma_constraint": null, "scale": true, "name": "bn4f_branch2b", "beta_regularizer": null, "epsilon": 0.001, "trainable": false, "beta_initializer": {"config": {}, "class_name": "Zeros"}, "momentum": 0.99, "gamma_regularizer": null}, "class_name": "BatchNormalization"}, {"name": "activation_39", "inbound_nodes": [[["bn4f_branch2b", 0, 0, {}]]], "config": {"name": "activation_39", "trainable": false, "activation": "relu"}, "class_name": "Activation"}, {"name": "res4f_branch2c", "inbound_nodes": [[["activation_39", 0, 0, {}]]], "config": {"kernel_size": [1, 1], "strides": [1, 1], "kernel_regularizer": null, "use_bias": true, "activation": "linear", "bias_regularizer": null, "filters": 1024, "trainable": false, "data_format": "channels_last", "activity_regularizer": null, "padding": "valid", "dilation_rate": [1, 1], "name": "res4f_branch2c", "bias_constraint": null, "kernel_initializer": {"config": {"scale": 1.0, "seed": null, "distribution": "uniform", "mode": "fan_avg"}, "class_name": "VarianceScaling"}, "bias_initializer": {"config": {}, "class_name": "Zeros"}, "kernel_constraint": null}, "class_name": "Conv2D"}, {"name": "bn4f_branch2c", "inbound_nodes": [[["res4f_branch2c", 0, 0, {}]]], "config": {"gamma_initializer": {"config": {}, "class_name": "Ones"}, "beta_constraint": null, "moving_variance_initializer": {"config": {}, "class_name": "Ones"}, "axis": 3, "moving_mean_initializer": {"config": {}, "class_name": "Zeros"}, "center": true, "gamma_constraint": null, "scale": true, "name": "bn4f_branch2c", "beta_regularizer": null, "epsilon": 0.001, "trainable": false, "beta_initializer": {"config": {}, "class_name": "Zeros"}, "momentum": 0.99, "gamma_regularizer": null}, "class_name": "BatchNormalization"}, {"name": "add_13", "inbound_nodes": [[["bn4f_branch2c", 0, 0, {}], ["activation_37", 0, 0, {}]]], "config": {"name": "add_13", "trainable": false}, "class_name": "Add"}, {"name": "activation_40", "inbound_nodes": [[["add_13", 0, 0, {}]]], "config": {"name": "activation_40", "trainable": false, "activation": "relu"}, "class_name": "Activation"}, {"name": "res5a_branch2a", "inbound_nodes": [[["activation_40", 0, 0, {}]]], "config": {"kernel_size": [1, 1], "strides": [2, 2], "kernel_regularizer": null, "use_bias": true, "activation": "linear", "bias_regularizer": null, "filters": 512, "trainable": false, "data_format": "channels_last", "activity_regularizer": null, "padding": "valid", "dilation_rate": [1, 1], "name": "res5a_branch2a", "bias_constraint": null, "kernel_initializer": {"config": {"scale": 1.0, "seed": null, "distribution": "uniform", "mode": "fan_avg"}, "class_name": "VarianceScaling"}, "bias_initializer": {"config": {}, "class_name": "Zeros"}, "kernel_constraint": null}, "class_name": "Conv2D"}, {"name": "bn5a_branch2a", "inbound_nodes": [[["res5a_branch2a", 0, 0, {}]]], "config": {"gamma_initializer": {"config": {}, "class_name": "Ones"}, "beta_constraint": null, "moving_variance_initializer": {"config": {}, "class_name": "Ones"}, "axis": 3, "moving_mean_initializer": {"config": {}, "class_name": "Zeros"}, "center": true, "gamma_constraint": null, "scale": true, "name": "bn5a_branch2a", "beta_regularizer": null, "epsilon": 0.001, "trainable": false, "beta_initializer": {"config": {}, "class_name": "Zeros"}, "momentum": 0.99, "gamma_regularizer": null}, "class_name": "BatchNormalization"}, {"name": "activation_41", "inbound_nodes": [[["bn5a_branch2a", 0, 0, {}]]], "config": {"name": "activation_41", "trainable": false, "activation": "relu"}, "class_name": "Activation"}, {"name": "res5a_branch2b", "inbound_nodes": [[["activation_41", 0, 0, {}]]], "config": {"kernel_size": [3, 3], "strides": [1, 1], "kernel_regularizer": null, "use_bias": true, "activation": "linear", "bias_regularizer": null, "filters": 512, "trainable": false, "data_format": "channels_last", "activity_regularizer": null, "padding": "same", "dilation_rate": [1, 1], "name": "res5a_branch2b", "bias_constraint": null, "kernel_initializer": {"config": {"scale": 1.0, "seed": null, "distribution": "uniform", "mode": "fan_avg"}, "class_name": "VarianceScaling"}, "bias_initializer": {"config": {}, "class_name": "Zeros"}, "kernel_constraint": null}, "class_name": "Conv2D"}, {"name": "bn5a_branch2b", "inbound_nodes": [[["res5a_branch2b", 0, 0, {}]]], "config": {"gamma_initializer": {"config": {}, "class_name": "Ones"}, "beta_constraint": null, "moving_variance_initializer": {"config": {}, "class_name": "Ones"}, "axis": 3, "moving_mean_initializer": {"config": {}, "class_name": "Zeros"}, "center": true, "gamma_constraint": null, "scale": true, "name": "bn5a_branch2b", "beta_regularizer": null, "epsilon": 0.001, "trainable": false, "beta_initializer": {"config": {}, "class_name": "Zeros"}, "momentum": 0.99, "gamma_regularizer": null}, "class_name": "BatchNormalization"}, {"name": "activation_42", "inbound_nodes": [[["bn5a_branch2b", 0, 0, {}]]], "config": {"name": "activation_42", "trainable": false, "activation": "relu"}, "class_name": "Activation"}, {"name": "res5a_branch2c", "inbound_nodes": [[["activation_42", 0, 0, {}]]], "config": {"kernel_size": [1, 1], "strides": [1, 1], "kernel_regularizer": null, "use_bias": true, "activation": "linear", "bias_regularizer": null, "filters": 2048, "trainable": false, "data_format": "channels_last", "activity_regularizer": null, "padding": "valid", "dilation_rate": [1, 1], "name": "res5a_branch2c", "bias_constraint": null, "kernel_initializer": {"config": {"scale": 1.0, "seed": null, "distribution": "uniform", "mode": "fan_avg"}, "class_name": "VarianceScaling"}, "bias_initializer": {"config": {}, "class_name": "Zeros"}, "kernel_constraint": null}, "class_name": "Conv2D"}, {"name": "res5a_branch1", "inbound_nodes": [[["activation_40", 0, 0, {}]]], "config": {"kernel_size": [1, 1], "strides": [2, 2], "kernel_regularizer": null, "use_bias": true, "activation": "linear", "bias_regularizer": null, "filters": 2048, "trainable": false, "data_format": "channels_last", "activity_regularizer": null, "padding": "valid", "dilation_rate": [1, 1], "name": "res5a_branch1", "bias_constraint": null, "kernel_initializer": {"config": {"scale": 1.0, "seed": null, "distribution": "uniform", "mode": "fan_avg"}, "class_name": "VarianceScaling"}, "bias_initializer": {"config": {}, "class_name": "Zeros"}, "kernel_constraint": null}, "class_name": "Conv2D"}, {"name": "bn5a_branch2c", "inbound_nodes": [[["res5a_branch2c", 0, 0, {}]]], "config": {"gamma_initializer": {"config": {}, "class_name": "Ones"}, "beta_constraint": null, "moving_variance_initializer": {"config": {}, "class_name": "Ones"}, "axis": 3, "moving_mean_initializer": {"config": {}, "class_name": "Zeros"}, "center": true, "gamma_constraint": null, "scale": true, "name": "bn5a_branch2c", "beta_regularizer": null, "epsilon": 0.001, "trainable": false, "beta_initializer": {"config": {}, "class_name": "Zeros"}, "momentum": 0.99, "gamma_regularizer": null}, "class_name": "BatchNormalization"}, {"name": "bn5a_branch1", "inbound_nodes": [[["res5a_branch1", 0, 0, {}]]], "config": {"gamma_initializer": {"config": {}, "class_name": "Ones"}, "beta_constraint": null, "moving_variance_initializer": {"config": {}, "class_name": "Ones"}, "axis": 3, "moving_mean_initializer": {"config": {}, "class_name": "Zeros"}, "center": true, "gamma_constraint": null, "scale": true, "name": "bn5a_branch1", "beta_regularizer": null, "epsilon": 0.001, "trainable": false, "beta_initializer": {"config": {}, "class_name": "Zeros"}, "momentum": 0.99, "gamma_regularizer": null}, "class_name": "BatchNormalization"}, {"name": "add_14", "inbound_nodes": [[["bn5a_branch2c", 0, 0, {}], ["bn5a_branch1", 0, 0, {}]]], "config": {"name": "add_14", "trainable": false}, "class_name": "Add"}, {"name": "activation_43", "inbound_nodes": [[["add_14", 0, 0, {}]]], "config": {"name": "activation_43", "trainable": false, "activation": "relu"}, "class_name": "Activation"}, {"name": "res5b_branch2a", "inbound_nodes": [[["activation_43", 0, 0, {}]]], "config": {"kernel_size": [1, 1], "strides": [1, 1], "kernel_regularizer": null, "use_bias": true, "activation": "linear", "bias_regularizer": null, "filters": 512, "trainable": false, "data_format": "channels_last", "activity_regularizer": null, "padding": "valid", "dilation_rate": [1, 1], "name": "res5b_branch2a", "bias_constraint": null, "kernel_initializer": {"config": {"scale": 1.0, "seed": null, "distribution": "uniform", "mode": "fan_avg"}, "class_name": "VarianceScaling"}, "bias_initializer": {"config": {}, "class_name": "Zeros"}, "kernel_constraint": null}, "class_name": "Conv2D"}, {"name": "bn5b_branch2a", "inbound_nodes": [[["res5b_branch2a", 0, 0, {}]]], "config": {"gamma_initializer": {"config": {}, "class_name": "Ones"}, "beta_constraint": null, "moving_variance_initializer": {"config": {}, "class_name": "Ones"}, "axis": 3, "moving_mean_initializer": {"config": {}, "class_name": "Zeros"}, "center": true, "gamma_constraint": null, "scale": true, "name": "bn5b_branch2a", "beta_regularizer": null, "epsilon": 0.001, "trainable": false, "beta_initializer": {"config": {}, "class_name": "Zeros"}, "momentum": 0.99, "gamma_regularizer": null}, "class_name": "BatchNormalization"}, {"name": "activation_44", "inbound_nodes": [[["bn5b_branch2a", 0, 0, {}]]], "config": {"name": "activation_44", "trainable": false, "activation": "relu"}, "class_name": "Activation"}, {"name": "res5b_branch2b", "inbound_nodes": [[["activation_44", 0, 0, {}]]], "config": {"kernel_size": [3, 3], "strides": [1, 1], "kernel_regularizer": null, "use_bias": true, "activation": "linear", "bias_regularizer": null, "filters": 512, "trainable": false, "data_format": "channels_last", "activity_regularizer": null, "padding": "same", "dilation_rate": [1, 1], "name": "res5b_branch2b", "bias_constraint": null, "kernel_initializer": {"config": {"scale": 1.0, "seed": null, "distribution": "uniform", "mode": "fan_avg"}, "class_name": "VarianceScaling"}, "bias_initializer": {"config": {}, "class_name": "Zeros"}, "kernel_constraint": null}, "class_name": "Conv2D"}, {"name": "bn5b_branch2b", "inbound_nodes": [[["res5b_branch2b", 0, 0, {}]]], "config": {"gamma_initializer": {"config": {}, "class_name": "Ones"}, "beta_constraint": null, "moving_variance_initializer": {"config": {}, "class_name": "Ones"}, "axis": 3, "moving_mean_initializer": {"config": {}, "class_name": "Zeros"}, "center": true, "gamma_constraint": null, "scale": true, "name": "bn5b_branch2b", "beta_regularizer": null, "epsilon": 0.001, "trainable": false, "beta_initializer": {"config": {}, "class_name": "Zeros"}, "momentum": 0.99, "gamma_regularizer": null}, "class_name": "BatchNormalization"}, {"name": "activation_45", "inbound_nodes": [[["bn5b_branch2b", 0, 0, {}]]], "config": {"name": "activation_45", "trainable": false, "activation": "relu"}, "class_name": "Activation"}, {"name": "res5b_branch2c", "inbound_nodes": [[["activation_45", 0, 0, {}]]], "config": {"kernel_size": [1, 1], "strides": [1, 1], "kernel_regularizer": null, "use_bias": true, "activation": "linear", "bias_regularizer": null, "filters": 2048, "trainable": false, "data_format": "channels_last", "activity_regularizer": null, "padding": "valid", "dilation_rate": [1, 1], "name": "res5b_branch2c", "bias_constraint": null, "kernel_initializer": {"config": {"scale": 1.0, "seed": null, "distribution": "uniform", "mode": "fan_avg"}, "class_name": "VarianceScaling"}, "bias_initializer": {"config": {}, "class_name": "Zeros"}, "kernel_constraint": null}, "class_name": "Conv2D"}, {"name": "bn5b_branch2c", "inbound_nodes": [[["res5b_branch2c", 0, 0, {}]]], "config": {"gamma_initializer": {"config": {}, "class_name": "Ones"}, "beta_constraint": null, "moving_variance_initializer": {"config": {}, "class_name": "Ones"}, "axis": 3, "moving_mean_initializer": {"config": {}, "class_name": "Zeros"}, "center": true, "gamma_constraint": null, "scale": true, "name": "bn5b_branch2c", "beta_regularizer": null, "epsilon": 0.001, "trainable": false, "beta_initializer": {"config": {}, "class_name": "Zeros"}, "momentum": 0.99, "gamma_regularizer": null}, "class_name": "BatchNormalization"}, {"name": "add_15", "inbound_nodes": [[["bn5b_branch2c", 0, 0, {}], ["activation_43", 0, 0, {}]]], "config": {"name": "add_15", "trainable": false}, "class_name": "Add"}, {"name": "activation_46", "inbound_nodes": [[["add_15", 0, 0, {}]]], "config": {"name": "activation_46", "trainable": false, "activation": "relu"}, "class_name": "Activation"}, {"name": "res5c_branch2a", "inbound_nodes": [[["activation_46", 0, 0, {}]]], "config": {"kernel_size": [1, 1], "strides": [1, 1], "kernel_regularizer": null, "use_bias": true, "activation": "linear", "bias_regularizer": null, "filters": 512, "trainable": false, "data_format": "channels_last", "activity_regularizer": null, "padding": "valid", "dilation_rate": [1, 1], "name": "res5c_branch2a", "bias_constraint": null, "kernel_initializer": {"config": {"scale": 1.0, "seed": null, "distribution": "uniform", "mode": "fan_avg"}, "class_name": "VarianceScaling"}, "bias_initializer": {"config": {}, "class_name": "Zeros"}, "kernel_constraint": null}, "class_name": "Conv2D"}, {"name": "bn5c_branch2a", "inbound_nodes": [[["res5c_branch2a", 0, 0, {}]]], "config": {"gamma_initializer": {"config": {}, "class_name": "Ones"}, "beta_constraint": null, "moving_variance_initializer": {"config": {}, "class_name": "Ones"}, "axis": 3, "moving_mean_initializer": {"config": {}, "class_name": "Zeros"}, "center": true, "gamma_constraint": null, "scale": true, "name": "bn5c_branch2a", "beta_regularizer": null, "epsilon": 0.001, "trainable": false, "beta_initializer": {"config": {}, "class_name": "Zeros"}, "momentum": 0.99, "gamma_regularizer": null}, "class_name": "BatchNormalization"}, {"name": "activation_47", "inbound_nodes": [[["bn5c_branch2a", 0, 0, {}]]], "config": {"name": "activation_47", "trainable": false, "activation": "relu"}, "class_name": "Activation"}, {"name": "res5c_branch2b", "inbound_nodes": [[["activation_47", 0, 0, {}]]], "config": {"kernel_size": [3, 3], "strides": [1, 1], "kernel_regularizer": null, "use_bias": true, "activation": "linear", "bias_regularizer": null, "filters": 512, "trainable": false, "data_format": "channels_last", "activity_regularizer": null, "padding": "same", "dilation_rate": [1, 1], "name": "res5c_branch2b", "bias_constraint": null, "kernel_initializer": {"config": {"scale": 1.0, "seed": null, "distribution": "uniform", "mode": "fan_avg"}, "class_name": "VarianceScaling"}, "bias_initializer": {"config": {}, "class_name": "Zeros"}, "kernel_constraint": null}, "class_name": "Conv2D"}, {"name": "bn5c_branch2b", "inbound_nodes": [[["res5c_branch2b", 0, 0, {}]]], "config": {"gamma_initializer": {"config": {}, "class_name": "Ones"}, "beta_constraint": null, "moving_variance_initializer": {"config": {}, "class_name": "Ones"}, "axis": 3, "moving_mean_initializer": {"config": {}, "class_name": "Zeros"}, "center": true, "gamma_constraint": null, "scale": true, "name": "bn5c_branch2b", "beta_regularizer": null, "epsilon": 0.001, "trainable": false, "beta_initializer": {"config": {}, "class_name": "Zeros"}, "momentum": 0.99, "gamma_regularizer": null}, "class_name": "BatchNormalization"}, {"name": "activation_48", "inbound_nodes": [[["bn5c_branch2b", 0, 0, {}]]], "config": {"name": "activation_48", "trainable": false, "activation": "relu"}, "class_name": "Activation"}, {"name": "res5c_branch2c", "inbound_nodes": [[["activation_48", 0, 0, {}]]], "config": {"kernel_size": [1, 1], "strides": [1, 1], "kernel_regularizer": null, "use_bias": true, "activation": "linear", "bias_regularizer": null, "filters": 2048, "trainable": false, "data_format": "channels_last", "activity_regularizer": null, "padding": "valid", "dilation_rate": [1, 1], "name": "res5c_branch2c", "bias_constraint": null, "kernel_initializer": {"config": {"scale": 1.0, "seed": null, "distribution": "uniform", "mode": "fan_avg"}, "class_name": "VarianceScaling"}, "bias_initializer": {"config": {}, "class_name": "Zeros"}, "kernel_constraint": null}, "class_name": "Conv2D"}, {"name": "bn5c_branch2c", "inbound_nodes": [[["res5c_branch2c", 0, 0, {}]]], "config": {"gamma_initializer": {"config": {}, "class_name": "Ones"}, "beta_constraint": null, "moving_variance_initializer": {"config": {}, "class_name": "Ones"}, "axis": 3, "moving_mean_initializer": {"config": {}, "class_name": "Zeros"}, "center": true, "gamma_constraint": null, "scale": true, "name": "bn5c_branch2c", "beta_regularizer": null, "epsilon": 0.001, "trainable": false, "beta_initializer": {"config": {}, "class_name": "Zeros"}, "momentum": 0.99, "gamma_regularizer": null}, "class_name": "BatchNormalization"}, {"name": "add_16", "inbound_nodes": [[["bn5c_branch2c", 0, 0, {}], ["activation_46", 0, 0, {}]]], "config": {"name": "add_16", "trainable": false}, "class_name": "Add"}, {"name": "activation_49", "inbound_nodes": [[["add_16", 0, 0, {}]]], "config": {"name": "activation_49", "trainable": false, "activation": "relu"}, "class_name": "Activation"}, {"name": "avg_pool", "inbound_nodes": [[["activation_49", 0, 0, {}]]], "config": {"strides": [7, 7], "padding": "valid", "name": "avg_pool", "trainable": false, "data_format": "channels_last", "pool_size": [7, 7]}, "class_name": "AveragePooling2D"}, {"name": "flatten", "inbound_nodes": [[["avg_pool", 0, 0, {}]]], "config": {"name": "flatten", "trainable": true}, "class_name": "Flatten"}, {"name": "dropout_1", "inbound_nodes": [[["flatten", 0, 0, {}]]], "config": {"name": "dropout_1", "rate": 0.5, "trainable": true, "noise_shape": null, "seed": null}, "class_name": "Dropout"}, {"name": "fc1", "inbound_nodes": [[["dropout_1", 0, 0, {}]]], "config": {"bias_constraint": null, "kernel_regularizer": null, "use_bias": true, "activation": "relu", "bias_regularizer": null, "bias_initializer": {"config": {}, "class_name": "Zeros"}, "units": 1024, "activity_regularizer": null, "name": "fc1", "kernel_initializer": {"config": {"scale": 1.0, "seed": null, "distribution": "uniform", "mode": "fan_avg"}, "class_name": "VarianceScaling"}, "trainable": true, "kernel_constraint": null}, "class_name": "Dense"}, {"name": "dropout_2", "inbound_nodes": [[["fc1", 0, 0, {}]]], "config": {"name": "dropout_2", "rate": 0.5, "trainable": true, "noise_shape": null, "seed": null}, "class_name": "Dropout"}, {"name": "predictions", "inbound_nodes": [[["dropout_2", 0, 0, {}]]], "config": {"bias_constraint": null, "kernel_regularizer": null, "use_bias": true, "activation": "softmax", "bias_regularizer": null, "bias_initializer": {"config": {}, "class_name": "Zeros"}, "units": 11, "activity_regularizer": null, "name": "predictions", "kernel_initializer": {"config": {"scale": 1.0, "seed": null, "distribution": "uniform", "mode": "fan_avg"}, "class_name": "VarianceScaling"}, "trainable": true, "kernel_constraint": null}, "class_name": "Dense"}], "output_layers": [["predictions", 0, 0]]}, "class_name": "Model", "keras_version": "2.1.5"}